


../../darknet/darknet detector recall ../../data/cones_updated.data yolov3-tiny_3l-cones.cfg backup/yolov3-tiny_3l-cones_last.weights > results.txt

Total BFLOPS 15.180 

layer     filters    size              input                output
   0 conv     16  3 x 3 / 1   608 x 608 x   3   ->   608 x 608 x  16 0.319 BF
   1 max          2 x 2 / 2   608 x 608 x  16   ->   304 x 304 x  16 0.006 BF
   2 conv     32  3 x 3 / 1   304 x 304 x  16   ->   304 x 304 x  32 0.852 BF
   3 max          2 x 2 / 2   304 x 304 x  32   ->   152 x 152 x  32 0.003 BF
   4 conv     64  3 x 3 / 1   152 x 152 x  32   ->   152 x 152 x  64 0.852 BF
   5 max          2 x 2 / 2   152 x 152 x  64   ->    76 x  76 x  64 0.001 BF
   6 conv    128  3 x 3 / 1    76 x  76 x  64   ->    76 x  76 x 128 0.852 BF
   7 max          2 x 2 / 2    76 x  76 x 128   ->    38 x  38 x 128 0.001 BF
   8 conv    256  3 x 3 / 1    38 x  38 x 128   ->    38 x  38 x 256 0.852 BF
   9 max          2 x 2 / 2    38 x  38 x 256   ->    19 x  19 x 256 0.000 BF
  10 conv    512  3 x 3 / 1    19 x  19 x 256   ->    19 x  19 x 512 0.852 BF
  11 max          2 x 2 / 1    19 x  19 x 512   ->    19 x  19 x 512 0.001 BF
  12 conv   1024  3 x 3 / 1    19 x  19 x 512   ->    19 x  19 x1024 3.407 BF
  13 conv    256  1 x 1 / 1    19 x  19 x1024   ->    19 x  19 x 256 0.189 BF
  14 conv    512  3 x 3 / 1    19 x  19 x 256   ->    19 x  19 x 512 0.852 BF
  15 conv     24  1 x 1 / 1    19 x  19 x 512   ->    19 x  19 x  24 0.009 BF
  16 yolo
  17 route  13
  18 conv    128  1 x 1 / 1    19 x  19 x 256   ->    19 x  19 x 128 0.024 BF
  19 upsample            2x    19 x  19 x 128   ->    38 x  38 x 128
  20 route  19 8
  21 conv    256  3 x 3 / 1    38 x  38 x 384   ->    38 x  38 x 256 2.555 BF
  22 conv     24  1 x 1 / 1    38 x  38 x 256   ->    38 x  38 x  24 0.018 BF
  23 yolo
  24 route  21
  25 conv    128  1 x 1 / 1    38 x  38 x 256   ->    38 x  38 x 128 0.095 BF
  26 upsample            2x    38 x  38 x 128   ->    76 x  76 x 128
  27 route  26 6
  28 conv    128  3 x 3 / 1    76 x  76 x 256   ->    76 x  76 x 128 3.407 BF
  29 conv     24  1 x 1 / 1    76 x  76 x 128   ->    76 x  76 x  24 0.035 BF
  30 yolo
Loading weights from backup/yolov3-tiny_3l-cones_last.weights...Done!
    0    11    12	RPs/Img: 48.00	IOU: 66.24%	Recall:91.67%
    1    25    37	RPs/Img: 55.00	IOU: 57.03%	Recall:67.57%
    2    34    48	RPs/Img: 47.67	IOU: 59.16%	Recall:70.83%
    3    45    60	RPs/Img: 49.25	IOU: 61.42%	Recall:75.00%
    4    63    97	RPs/Img: 51.00	IOU: 54.63%	Recall:64.95%
…
