../../darknet/darknet detector recall ../../data/cones_updated.data yolov3-tiny_3l-cones_partial.cfg backup/yolov3-tiny_3l-cones_partial_last.weights 
layer     filters    size              input                output
   0 conv     16  3 x 3 / 1   608 x 352 x   3   ->   608 x 352 x  16 0.185 BF
   1 max          2 x 2 / 2   608 x 352 x  16   ->   304 x 176 x  16 0.003 BF
   2 conv     32  3 x 3 / 1   304 x 176 x  16   ->   304 x 176 x  32 0.493 BF
   3 max          2 x 2 / 2   304 x 176 x  32   ->   152 x  88 x  32 0.002 BF
   4 conv     64  3 x 3 / 1   152 x  88 x  32   ->   152 x  88 x  64 0.493 BF
   5 max          2 x 2 / 2   152 x  88 x  64   ->    76 x  44 x  64 0.001 BF
   6 conv    128  3 x 3 / 1    76 x  44 x  64   ->    76 x  44 x 128 0.493 BF
   7 max          2 x 2 / 2    76 x  44 x 128   ->    38 x  22 x 128 0.000 BF
   8 conv    256  3 x 3 / 1    38 x  22 x 128   ->    38 x  22 x 256 0.493 BF
   9 max          2 x 2 / 2    38 x  22 x 256   ->    19 x  11 x 256 0.000 BF
  10 conv    512  3 x 3 / 1    19 x  11 x 256   ->    19 x  11 x 512 0.493 BF
  11 max          2 x 2 / 1    19 x  11 x 512   ->    19 x  11 x 512 0.000 BF
  12 conv   1024  3 x 3 / 1    19 x  11 x 512   ->    19 x  11 x1024 1.972 BF
  13 conv    256  1 x 1 / 1    19 x  11 x1024   ->    19 x  11 x 256 0.110 BF
  14 conv    512  3 x 3 / 1    19 x  11 x 256   ->    19 x  11 x 512 0.493 BF
  15 conv     24  1 x 1 / 1    19 x  11 x 512   ->    19 x  11 x  24 0.005 BF
  16 yolo
  17 route  13
  18 conv    128  1 x 1 / 1    19 x  11 x 256   ->    19 x  11 x 128 0.014 BF
  19 upsample            2x    19 x  11 x 128   ->    38 x  22 x 128
  20 route  19 8
  21 conv    256  3 x 3 / 1    38 x  22 x 384   ->    38 x  22 x 256 1.479 BF
  22 conv     24  1 x 1 / 1    38 x  22 x 256   ->    38 x  22 x  24 0.010 BF
  23 yolo
  24 route  21
  25 conv    128  1 x 1 / 1    38 x  22 x 256   ->    38 x  22 x 128 0.055 BF
  26 upsample            2x    38 x  22 x 128   ->    76 x  44 x 128
  27 route  26 6
  28 conv    128  3 x 3 / 1    76 x  44 x 256   ->    76 x  44 x 128 1.972 BF
  29 conv     24  1 x 1 / 1    76 x  44 x 128   ->    76 x  44 x  24 0.021 BF
  30 yolo
Total BFLOPS 8.789 
Loading weights from backup/yolov3-tiny_3l-cones_partial_last.weights...
 seen 64 
Done!
    0     9    12	RPs/Img: 126.00	IOU: 59.50%	Recall:75.00%
    1    19    37	RPs/Img: 103.50	IOU: 47.30%	Recall:51.35%
    2    28    48	RPs/Img: 90.67	IOU: 51.10%	Recall:58.33%
    3    37    60	RPs/Img: 81.75	IOU: 54.19%	Recall:61.67%
…
