../../darknet/darknet detector recall ../../data/cones_updated.data yolov3-tiny_3l-cones_updated.cfg backup/yolov3-tiny_3l-cones_updated_last.weights 
layer     filters    size              input                output
   0 conv     16  3 x 3 / 1   608 x 416 x   3   ->   608 x 416 x  16 0.219 BF
   1 max          2 x 2 / 2   608 x 416 x  16   ->   304 x 208 x  16 0.004 BF
   2 conv     32  3 x 3 / 1   304 x 208 x  16   ->   304 x 208 x  32 0.583 BF
   3 max          2 x 2 / 2   304 x 208 x  32   ->   152 x 104 x  32 0.002 BF
   4 conv     64  3 x 3 / 1   152 x 104 x  32   ->   152 x 104 x  64 0.583 BF
   5 max          2 x 2 / 2   152 x 104 x  64   ->    76 x  52 x  64 0.001 BF
   6 conv    128  3 x 3 / 1    76 x  52 x  64   ->    76 x  52 x 128 0.583 BF
   7 max          2 x 2 / 2    76 x  52 x 128   ->    38 x  26 x 128 0.001 BF
   8 conv    256  3 x 3 / 1    38 x  26 x 128   ->    38 x  26 x 256 0.583 BF
   9 max          2 x 2 / 2    38 x  26 x 256   ->    19 x  13 x 256 0.000 BF
  10 conv    512  3 x 3 / 1    19 x  13 x 256   ->    19 x  13 x 512 0.583 BF
  11 max          2 x 2 / 1    19 x  13 x 512   ->    19 x  13 x 512 0.001 BF
  12 conv   1024  3 x 3 / 1    19 x  13 x 512   ->    19 x  13 x1024 2.331 BF
  13 conv    256  1 x 1 / 1    19 x  13 x1024   ->    19 x  13 x 256 0.129 BF
  14 conv    512  3 x 3 / 1    19 x  13 x 256   ->    19 x  13 x 512 0.583 BF
  15 conv     24  1 x 1 / 1    19 x  13 x 512   ->    19 x  13 x  24 0.006 BF
  16 yolo
  17 route  13
  18 conv    128  1 x 1 / 1    19 x  13 x 256   ->    19 x  13 x 128 0.016 BF
  19 upsample            2x    19 x  13 x 128   ->    38 x  26 x 128
  20 route  19 8
  21 conv    256  3 x 3 / 1    38 x  26 x 384   ->    38 x  26 x 256 1.748 BF
  22 conv     24  1 x 1 / 1    38 x  26 x 256   ->    38 x  26 x  24 0.012 BF
  23 yolo
  24 route  21
  25 conv    128  1 x 1 / 1    38 x  26 x 256   ->    38 x  26 x 128 0.065 BF
  26 upsample            2x    38 x  26 x 128   ->    76 x  52 x 128
  27 route  26 6
  28 conv    128  3 x 3 / 1    76 x  52 x 256   ->    76 x  52 x 128 2.331 BF
  29 conv     24  1 x 1 / 1    76 x  52 x 128   ->    76 x  52 x  24 0.024 BF
  30 yolo
Total BFLOPS 10.386 
Loading weights from backup/yolov3-tiny_3l-cones_updated_last.weights...
 seen 64 
Done!
    0     9    12	RPs/Img: 84.00	IOU: 60.04%	Recall:75.00%
    1    24    37	RPs/Img: 97.00	IOU: 53.73%	Recall:64.86%
    2    33    48	RPs/Img: 81.67	IOU: 56.65%	Recall:68.75%
    3    42    60	RPs/Img: 74.75	IOU: 58.21%	Recall:70.00%
…
